…
 Layer (type)                Output Shape                 Param #   Connected to                  
==================================================================================================
 input_1 (InputLayer)        [(None, 45)]                 0         []                            
                                                                                                  
 input_2 (InputLayer)        [(None, 45)]                 0         []                            
                                                                                                  
 dense (Dense)               (None, 2048)                 94208     ['input_1[0][0]']             
                                                                                                  
 dense_2 (Dense)             (None, 2048)                 94208     ['input_2[0][0]']             
                                                                                                  
 batch_normalization (Batch  (None, 2048)                 8192      ['dense[0][0]']               
 Normalization)                                                                                   
                                                                                                  
 batch_normalization_2 (Bat  (None, 2048)                 8192      ['dense_2[0][0]']             
 chNormalization)                                                                                 
                                                                                                  
 dropout (Dropout)           (None, 2048)                 0         ['batch_normalization[0][0]'] 
                                                                                                  
 dropout_2 (Dropout)         (None, 2048)                 0         ['batch_normalization_2[0][0]'
                                                                    ]                             
                                                                                                  
 tf.nn.silu (TFOpLambda)     (None, 2048)                 0         ['dropout[0][0]']             
                                                                                                  
 tf.nn.silu_2 (TFOpLambda)   (None, 2048)                 0         ['dropout_2[0][0]']           
                                                                                                  
 dense_1 (Dense)             (None, 1024)                 2098176   ['tf.nn.silu[0][0]']          
                                                                                                  
 dense_3 (Dense)             (None, 1024)                 2098176   ['tf.nn.silu_2[0][0]']        
                                                                                                  
 batch_normalization_1 (Bat  (None, 1024)                 4096      ['dense_1[0][0]']             
 chNormalization)                                                                                 
                                                                                                  
 batch_normalization_3 (Bat  (None, 1024)                 4096      ['dense_3[0][0]']             
 chNormalization)                                                                                 
                                                                                                  
 dropout_1 (Dropout)         (None, 1024)                 0         ['batch_normalization_1[0][0]'
                                                                    ]                             
                                                                                                  
 dropout_3 (Dropout)         (None, 1024)                 0         ['batch_normalization_3[0][0]'
                                                                    ]                             
                                                                                                  
 tf.nn.silu_1 (TFOpLambda)   (None, 1024)                 0         ['dropout_1[0][0]']           
                                                                                                  
 tf.nn.silu_3 (TFOpLambda)   (None, 1024)                 0         ['dropout_3[0][0]']           
                                                                                                  
 concatenate (Concatenate)   (None, 2048)                 0         ['tf.nn.silu_1[0][0]',        
                                                                     'tf.nn.silu_3[0][0]']        
                                                                                                  
 dense_4 (Dense)             (None, 1024)                 2098176   ['concatenate[0][0]']         
                                                                                                  
 batch_normalization_4 (Bat  (None, 1024)                 4096      ['dense_4[0][0]']             
 chNormalization)                                                                                 
                                                                                                  
 dropout_4 (Dropout)         (None, 1024)                 0         ['batch_normalization_4[0][0]'
                                                                    ]                             
                                                                                                  
 tf.nn.silu_4 (TFOpLambda)   (None, 1024)                 0         ['dropout_4[0][0]']           
                                                                                                  
 dense_5 (Dense)             (None, 512)                  524800    ['tf.nn.silu_4[0][0]']        
                                                                                                  
 batch_normalization_5 (Bat  (None, 512)                  2048      ['dense_5[0][0]']             
 chNormalization)                                                                                 
                                                                                                  
 dropout_5 (Dropout)         (None, 512)                  0         ['batch_normalization_5[0][0]'
                                                                    ]                             
                                                                                                  
 tf.nn.silu_5 (TFOpLambda)   (None, 512)                  0         ['dropout_5[0][0]']           
                                                                                                  
 dense_6 (Dense)             (None, 1)                    513       ['tf.nn.silu_5[0][0]']        
                                                                                                  
==================================================================================================
Total params: 7038977 (26.85 MB)
Trainable params: 7023617 (26.79 MB)
Non-trainable params: 15360 (60.00 KB)
__________________________________________________________________________________________________
…
